…
"7d964fad-62f2-4184-bd0f-1224164446ae"},"source":["model = build_1DCNN_classifier(input_shape)\n","model.summary()"],"execution_count":null,"outputs":[{"output_type":"stream","name":"stdout","text":["Model: \"model\"\n","_________________________________________________________________\n"," Layer (type)                Output Shape              Param #   \n","=================================================================\n"," Input (InputLayer)          [(None, 36, 6)]           0         \n","                                                                 \n"," conv1d_49 (Conv1D)          (None, 36, 256)           4864      \n","                                                                 \n"," conv1d_50 (Conv1D)          (None, 36, 256)           196864    \n","                                                                 \n"," max_pooling1d_21 (MaxPoolin  (None, 18, 256)          0         \n"," g1D)                                                            \n","                                                                 \n"," conv1d_51 (Conv1D)          (None, 18, 256)           196864    \n","                                                                 \n"," conv1d_52 (Conv1D)          (None, 18, 256)           196864    \n","                                                                 \n"," max_pooling1d_22 (MaxPoolin  (None, 9, 256)           0         \n"," g1D)                                                            \n","                                                                 \n"," dropout_5 (Dropout)         (None, 9, 256)            0         \n","                                                                 \n"," conv1d_53 (Conv1D)          (None, 9, 256)            196864    \n","                                                                 \n"," conv1d_54 (Conv1D)          (None, 9, 256)            196864    \n","                                                                 \n"," max_pooling1d_23 (MaxPoolin  (None, 4, 256)           0         \n"," g1D)                                                            \n","                                                                 \n"," conv1d_55 (Conv1D)          (None, 4, 256)            196864    \n","                                                                 \n"," conv1d_56 (Conv1D)          (None, 4, 256)            196864    \n","                                                                 \n"," max_pooling1d_24 (MaxPoolin  (None, 2, 256)           0         \n"," g1D)                                                            \n","                                                                 \n"," dropout_6 (Dropout)         (None, 2, 256)            0         \n","                                                                 \n"," global_average_pooling1d_5   (None, 256)              0         \n"," (GlobalAveragePooling1D)                                        \n","                                                                 \n"," dense_10 (Dense)            (None, 256)               65792     \n","                                                                 \n"," dropout_7 (Dropout)         (None, 256)               0         \n","                                                                 \n"," dense_11 (Dense)            (None, 12)                3084      \n","                                                                 \n","=================================================================\n","Total params: 1,451,788\n","Trainable params: 1,451,788\n","Non-trainable params: 0\n","_________________________________________________________________\n"]}]},{"cell_type":"code","metadata":{"id":"xujngeFRKMsu","colab":{"base_uri":"https://localho
…
