…
"9b5475ee-9f8e-4982-f0ae-5229ec5e190c"},"source":["model = build_1DCNN_classifier(input_shape)\n","model.summary()"],"execution_count":null,"outputs":[{"output_type":"stream","name":"stdout","text":["Model: \"model\"\n","_________________________________________________________________\n"," Layer (type)                Output Shape              Param #   \n","=================================================================\n"," Input (InputLayer)          [(None, 36, 6)]           0         \n","                                                                 \n"," conv1d_179 (Conv1D)         (None, 36, 256)           4864      \n","                                                                 \n"," conv1d_180 (Conv1D)         (None, 36, 256)           196864    \n","                                                                 \n"," max_pooling1d_95 (MaxPoolin  (None, 18, 256)          0         \n"," g1D)                                                            \n","                                                                 \n"," conv1d_181 (Conv1D)         (None, 18, 256)           196864    \n","                                                                 \n"," conv1d_182 (Conv1D)         (None, 18, 256)           196864    \n","                                                                 \n"," max_pooling1d_96 (MaxPoolin  (None, 9, 256)           0         \n"," g1D)                                                            \n","                                                                 \n"," global_average_pooling1d_24  (None, 256)              0         \n","  (GlobalAveragePooling1D)                                       \n","                                                                 \n"," dense_50 (Dense)            (None, 256)               65792     \n","                                                                 \n"," dense_51 (Dense)            (None, 12)                3084      \n","                                                                 \n","=================================================================\n","Total params: 664,332\n","Trainable params: 664,332\n","Non-trainable params: 0\n","_________________________________________________________________\n"]}]},{"cell_type":"code","metadata":{"id":"xujngeFRKMsu","colab":{"base_uri":"https://localhost:8
…
