…
":"55d05436-a64a-480c-f266-f76d366b06f1"},"source":["model = build_1DCNN_classifier(input_shape)\n","model.summary()"],"execution_count":16,"outputs":[{"output_type":"stream","name":"stdout","text":["Model: \"model\"\n","_________________________________________________________________\n"," Layer (type)                Output Shape              Param #   \n","=================================================================\n"," Input (InputLayer)          [(None, 36, 6)]           0         \n","                                                                 \n"," conv1d (Conv1D)             (None, 36, 256)           4864      \n","                                                                 \n"," conv1d_1 (Conv1D)           (None, 36, 256)           196864    \n","                                                                 \n"," max_pooling1d (MaxPooling1D  (None, 18, 256)          0         \n"," )                                                               \n","                                                                 \n"," conv1d_2 (Conv1D)           (None, 18, 256)           196864    \n","                                                                 \n"," conv1d_3 (Conv1D)           (None, 18, 256)           196864    \n","                                                                 \n"," max_pooling1d_1 (MaxPooling  (None, 9, 256)           0         \n"," 1D)                                                             \n","                                                                 \n"," conv1d_4 (Conv1D)           (None, 9, 256)            196864    \n","                                                                 \n"," conv1d_5 (Conv1D)           (None, 9, 256)            196864    \n","                                                                 \n"," max_pooling1d_2 (MaxPooling  (None, 4, 256)           0         \n"," 1D)                                                             \n","                                                                 \n"," conv1d_6 (Conv1D)           (None, 4, 256)            196864    \n","                                                                 \n"," conv1d_7 (Conv1D)           (None, 4, 256)            196864    \n","                                                                 \n"," max_pooling1d_3 (MaxPooling  (None, 2, 256)           0         \n"," 1D)                                                             \n","                                                                 \n"," dropout (Dropout)           (None, 2, 256)            0         \n","                                                                 \n"," conv1d_8 (Conv1D)           (None, 2, 256)            196864    \n","                                                                 \n"," max_pooling1d_4 (MaxPooling  (None, 1, 256)           0         \n"," 1D)                                                             \n","                                                                 \n"," global_average_pooling1d (G  (None, 256)              0         \n"," lobalAveragePooling1D)                                          \n","                                                                 \n"," dense (Dense)               (None, 256)               65792     \n","                                                                 \n"," dense_1 (Dense)             (None, 12)                3084      \n","                                                                 \n","=================================================================\n","Total params: 1,648,652\n","Trainable params: 1,648,652\n","Non-trainable params: 0\n","_________________________________________________________________\n"]}]},{"cell_type":"code","metadata":{"id":"xujngeFRKMsu","colab":{"base_uri":"https://localho
…
